save model/tf_lite save model/tfLite_quant_model.tfLite (tflite, 84816 bytes, 4 tensors)

sequential/dense/BiasAdd/ReadVariableOp f4 [100]
0.48436317 0.08824456 -0.08876396 0.046258945 0.3478497 0.09385557 -0.31666312 -0.31735244
-0.32190713 -0.022645408 -0.15608114 0.15071054 0.14727029 0.08297311 0.39174333 -0.08248503
0.28215635 0.403183 0.26202956 -0.3753729 0.18259655 0.10590681 -0.39777175 -0.041271012
0.023880245 -0.47863674 -0.072723314 -0.48136896 -0.3750716 -0.20303437 0.12294623 0.27332166
0.25992322 0.14218675 0.13977626 -0.14621536 0.051383488 -0.37657326 0.27940744 0.16341428
0.114687026 -0.24276327 -0.019208033 0.26152527 0.574329 0.2887606 0.12516382 0.26655978
-0.53422296 -0.3000531 0.4894924 0.17976393 -0.15638347 0.20193256 0.06044822 0.15305744
0.3700429 0.018844724 0.25389668 -0.19561256 0.29736605 0.11386314 -0.28284737 0.011623691
-0.31356952 -0.38507298 -0.026938003 0.23131166 -0.34639728 -0.37408924 0.3177567 0.028719727
-0.09272972 -0.021042347 -0.111178435 0.024319623 0.09954366 -0.29668507 0.0636514 0.35142866
0.10489471 0.18427624 -0.34670988 0.24719226 0.13263166 0.36953697 0.14568248 -0.015848204
-0.12696236 -0.27685353 -0.44829977 0.34896857 0.20009734 -0.11291572 0.34182948 0.068705216
0.21361889 0.22421013 -0.09669837 0.027226632
00000000: 73fe f73e 90b9 b43d e1c9 b5bd 057a 3d3d
00000010: 5b19 b23e 5937 c03d ab21 a2be 057c a2be
00000020: 03d1 a4be dd82 b9bc bcd3 1fbe dd53 1a3e
00000030: 06ce 163e ceed a93d 9592 c83e e9ed a8bd
00000040: cc76 903e 016e ce3e bd28 863e e030 c0be
00000050: 97fa 3a3e abe5 d83d bda8 cbbe cb0b 29bd
00000060: 81a0 c33c e00f f5be f6ef 94bd fe75 f6be
00000070: 6209 c0be 3ee8 4fbe 3ccb fb3d d1f0 8b3e
00000080: a814 853e 6799 113e 8221 0f3e 7bb9 15be
00000090: 7e77 523d 36ce c0be 7e0e 8f3e 1356 273e
000000a0: 08e1 ea3d ef96 78be 2a5a 9dbc a4e6 853e
000000b0: 3a07 133f 6ed8 933e f22a 003e 867a 883e
000000c0: d6c2 08bf 8fa0 99be bf9e fa3e 0914 383e
000000d0: fd22 20be 69c7 4e3e 8e98 773d 17bb 1c3e
000000e0: 4376 bd3e 4060 9a3c bffe 813e a94e 48be
000000f0: 5d40 983e 1431 e93d 5fd1 90be 4b71 3e3c
00000100: 2f8c a0be 4928 c5be 16ad dcbc f7dc 6c3e
00000110: fc5a b1be a088 bfbe 02b1 a23e a245 eb3c
00000120: 14e9 bdbd 0061 acbc 85b1 e3bd f239 c73c
00000130: 8cdd cb3d 1be7 97be aa5b 823d 75ee b33e
00000140: 0ad3 d63d e9b2 3c3e f583 b1be f81f 7d3e
00000150: 98d0 073e f333 bd3e ca2d 153e 18d4 81bc
00000160: 6c02 02be bfbf 8dbe 8c87 e5be 02ac b23e
00000170: 51e6 4c3e 5b40 e7bd 4604 af3e 52b5 8c3d
00000180: e9be 5a3e 5797 653e cc09 c6bd 630a df3c

sequential/dense_1/BiasAdd/ReadVariableOp f4 [10]
0.04512084 -0.11197552 -0.47556308 -0.40365696 0.2654128 -0.45951372 -0.13663188 -0.39834493
1.0413216 0.2974188
00000000: a1d0 383d 6c53 e5bd 017d f3be 20ac cebe
00000010: 30e4 873e 6245 ebbe 3ae9 0bbe def3 cbbe
00000020: 074a 853f 4747 983e

sequential/dense_1/MatMul f4 [10, 100]
-0.87353647 -0.15335011 0.19340746 0.15228452 -0.4045441 -0.24187972 0.16418119 0.10789413
0.08978338 0.13837314 -0.48512775 -0.2855418 -0.52426106 0.060635112 0.26880926 -0.23070753
-0.11326652 -0.016978506 -0.23619248 0.14532556 -0.22782546 -0.63460505 0.102246776 -0.3362915
0.030477822 -0.42811686 0.06814145 -0.2920824 -0.3282964 -0.1624226 0.27016148 -0.58216035
0.040975787 0.09930621 -0.2841272 -0.28945038 -0.2511995 -0.4475646 -0.35646284 -0.68115216
-0.5475262 -0.114108264 0.05873365 -0.5179051 -0.35323605 -0.68371457 -0.39474386 -0.079792865
0.0006193763 -0.32371247 -0.32357466 0.07223634 0.32522124 0.1729182 -0.13176012 -0.060285613
-0.61591876 -0.33724734 -0.19227572 0.28113106 -0.45276666 0.24985303 0.28423494 -0.42911768
-0.20232548 0.13874708 0.13717937 -0.40127376 0.046945736 -0.37528393 0.24548969 0.1772936
-0.34999362 -0.46871576 -0.15618488 0.16236266 -0.2820133 -0.40133527 0.2854614 -0.96607774
0.010234197 0.030953515 -0.6314963 0.25639033 0.14766292 -0.31850263 0.23493198 -0.19751544
0.05959943 -0.11680263 0.061273 0.26144543 -0.062059958 0.21859021 -0.47050893 -0.08632913
-0.41093546 -0.45787817 -0.6454144 -0.14826062 0.1792662 -0.23853062 -0.47690332 0.054503553
-0.0048283655 -0.19700412 -0.28111959 0.09739849 -0.18018079 -0.27004266 -0.113112025 -0.16844869
0.1818944 -0.17987236 -0.009174524 -0.20672157 -0.26082242 0.21468464 0.1641731 0.07799648
-0.3478646 -0.069247924 -0.24830553 -0.03388433 0.31692147 -0.27248552 -0.09890649 0.016946426
0.07896977 -0.33968112 0.2370303 -0.2614479 -0.2751124 0.2122451 0.13700637 0.13941881
0.13164337 -0.35250342 0.17761678 0.19754174 0.3126854 0.19454207 0.21536443 0.21130541
0.40236115 0.30868918 0.16725655 -0.36566654 -0.053676236 0.17810391 -0.33790064 -0.5807474
-0.5193858 0.29172385 -0.15899022 -0.12868781 0.061914656 -0.251247 0.19612332 -0.45677757
0.2781146 -0.274629 0.13823381 0.24476643 0.088012025 -0.23538013 -0.2667186 0.41578746
0.056004606 0.16579129 -0.2770546 -0.47817868 -0.15654872 -0.051541302 0.12404282 -0.522814
0.38409525 -0.40797785 -0.28099167 0.64998716 -0.3066364 0.2660296 -0.029673385 0.026308924
-0.5850399 0.43613598 0.1019414 -0.2934216 -0.28775007 0.09876442 0.019891806 0.08818371
-0.4854187 -0.27721176 0.1781911 0.16050348 0.23756132 0.14894818 -0.20073216 -0.4493846
-0.5574006 -0.3205914 -0.09132798 0.17992367 -0.45985517 -0.3138725 -0.013273485 -0.41723457
0.117709816 0.04027833 0.24443945 0.17445762 0.2631605 0.1842402 -0.12801597 -0.09759396
0.036656946 -0.50340325 0.26430964 0.014723336 -0.18853754 0.3105288 0.01622726 0.22008087
0.19635108 0.0007774779 0.038493067 0.019656638 0.15021016 -0.20200214 0.23157701 0.14308774
0.012197556 0.038709994 0.38447514 0.2783274 -0.19581762 -0.20503904 0.14679353 -0.5590815
-0.45450497 -0.06304401 -0.065181494 -0.37244186 -0.9503854 -0.1579939 -0.25568885 -0.31411043
0.24883972 0.2622403 0.12981817 0.13154668 -0.065662235 -0.15681437 0.19122757 -0.40965658
00000000: 16a0 5fbf d007 1dbe 9b0c 463e 79f0 1b3e
00000010: 6720 cfbe 51af 77be 1d1f 283e 99f7 dc3d
00000020: 59e0 b73d b0b1 0d3e aa62 f8be 8932 92be
00000030: f935 06bf 865c 783d 5ea1 893e 983e 6cbe
00000040: 47f8 e7bd 8216 8bbc 71dc 71be 39d0 143e
00000050: 144b 69be 7a75 22bf c266 d13d 662e acbe
00000060: a0ac f93c 2232 dbbe bf8d 8b3d d38b 95be
00000070: 7716 a8be 1c52 26be 9b52 8a3e 7608 15bf
00000080: 3ad6 273d 0e61 cb3d 1f79 91be d732 94be
00000090: 399d 80be 3027 e5be 4c82 b6be fd5f 2ebf
000000a0: ad2a 0cbf 98b1 e9bd b292 703d 6e95 04bf
000000b0: 5bdb b4be eb07 2fbf de1b cabe 716a a3bd
000000c0: a45d 223a a4bd a5be 94ab a5be a5f0 933d
000000d0: 6683 a63e 7811 313e 20ec 06be 0cee 76bd
000000e0: daac 1dbf afab acbe ede3 44be 69f0 8f3e
000000f0: 08d1 e7be 79d9 7f3e 3e87 913e 50b5 dbbe
00000100: 692e 4fbe b713 0e3e c078 0c3e c173 cdbe
00000110: 2c4a 403d 3725 c0be a661 7b3e 748c 353e
00000120: 5d32 b3be 83fb efbe eeee 1fbe 6642 263e
00000130: 0c64 90be d17b cdbe ff27 923e df50 77bf
00000140: 55ad 273c 3a92 fd3c bea9 21bf 9845 833e
00000150: f334 173e c712 a3be 0292 703e 7d41 4abe
00000160: 881e 743d 3836 efbd 66f9 7a3d 2ddc 853e
00000170: 9532 7ebd 1dd6 5f3e 8ce6 f0be 54cd b0bd
00000180: 2266 d2be 026f eabe e139 25bf a2d1 17be
00000190: 8f91 373e 5f41 74be ac2c f4be 1e3f 5f3d
000001a0: 4437 9ebb 73bb 49be e8ee 8fbe dc78 c73d
000001b0: 5081 38be 0843 8abe 47a7 e7bd d07d 2cbe
000001c0: 8742 3a3e 7630 38be be50 16bc d2ae 53be
000001d0: 848a 85be 4ad6 5b3e fe1c 283e 9ebc 9f3d
000001e0: 4f1b b2be dbd1 8dbd ce43 7ebe 4cca 0abd
000001f0: 8843 a23e 3983 8bbe 7c8f cabd 3bd3 8a3c
00000200: e7ba a13d afea adbe 12b8 723e 80dc 85be
00000210: 88db 8cbe c856 593e 664b 0c3e cec3 0e3e
00000220: 85cd 063e 547b b4be 2ce1 353e 6248 4a3e
00000230: 4d18 a03e 0936 473e 7e88 5c3e 7260 583e
00000240: 4802 ce3e 820c 9e3e 4d45 2b3e a538 bbbe
00000250: 9ddb 5bbd df60 363e 5001 adbe ddab 14bf
00000260: 78f6 04bf d45c 953e 55ce 22be bdc6 03be
00000270: 399a 7d3d 72a3 80be 8dd4 483e c0de e9be
00000280: 0965 8e3e 2c9c 8cbe 2a8d 0d3e 0da4 7a3e
00000290: a63f b43d 7d07 71be 578f 88be 18e2 d43e
000002a0: 1665 653d 31c5 293e 1ada 8dbe d6d3 f4be
000002b0: 4f4e 20be f91c 53bd 290a fe3d 23d7 05bf
000002c0: 22a8 c43e 79e2 d0be 24de 8fbe 8f65 263f
000002d0: 72ff 9cbe 0835 883e 9915 f3bc d085 d73c
000002e0: 2dc5 15bf 374d df3e a7c6 d03d 5b3b 96be
000002f0: fa53 93be 0045 ca3d 24f4 a23c a999 b43d
00000300: cd88 f8be b3ee 8dbe ba77 363e 065b 243e
00000310: 4643 733e df85 183e bb8c 4dbe bd15 e6be
00000320: ceb1 0ebf 8e24 a4be 2a0a bbbd e93d 383e
00000330: 2372 ebbe e5b3 a0be 0879 59bc c59f d5be
00000340: d811 f13d e4fa 243d 564e 7a3e 05a5 323e
00000350: f9bc 863e 77a9 3c3e 9e16 03be 58df c7bd
00000360: 9825 163d 09df 00bf 9853 873e 263a 713c
00000370: fc0f 41be a2fd 9e3e 08ef 843c e15c 613e
00000380: 4210 493e a9cf 4b3a e8aa 1d3d f506 a13c
00000390: b1d0 193e a6d9 4ebe 8622 6d3e 9885 123e
000003a0: 42d8 473c 5f8e 1e3d edd9 c43e ee80 8e3e
000003b0: 6a84 48be c1f5 51be 0b51 163e f71f 0fbf
000003c0: e0b4 e8be 381d 81bd e07d 85bd b3b0 bebe
000003d0: 754c 73bf 27c9 21be a6e9 82be 15d3 a0be
000003e0: d7cf 7e3e 5c44 863e 0eef 043e 2cb4 063e
000003f0: ec79 86bd f293 20be 29d1 433e 82be d1be

sequential/dense/MatMul i1 [100, 784] scale=0.009338334 zero_point=0
0.009338334 -0.06536834 0.04669167 -0.037353337 0.056030005 -0.037353337 0.018676668 0.018676668
0.056030005 -0.018676668 0.037353337 0.06536834 -0.056030005 -0.018676668 0.028015003 0.018676668
0.028015003 0.07470667 0.028015003 -0.037353337 -0.056030005 -0.028015003 0.009338334 -0.009338334
0.06536834 0.06536834 -0.06536834 -0.06536834 0.06536834 0.009338334 -0.04669167 0.037353337
-0.056030005 0.0 -0.028015003 -0.09338334 0.0 0.06536834 0.037353337 -0.018676668
0.04669167 0.056030005 -0.04669167 -0.11206001 -0.19610502 -0.20544335 -0.018676668 -0.14941335
0.018676668 -0.009338334 -0.009338334 -0.028015003 0.037353337 -0.037353337 -0.056030005 0.06536834
-0.009338334 0.018676668 -0.056030005 -0.07470667 0.028015003 -0.07470667 -0.028015003 -0.018676668
-0.04669167 -0.09338334 -0.06536834 0.06536834 -0.009338334 -0.14007501 -0.13073668 -0.16809002
-0.3268417 -0.25213504 -0.102721676 -0.009338334 -0.06536834 -0.17742835 0.04669167 0.037353337
0.056030005 -0.08404501 0.06536834 0.04669167 0.018676668 0.028015003 -0.018676668 0.018676668
0.009338334 -0.037353337 -0.037353337 -0.037353337 -0.037353337 -0.14007501 -0.102721676 -0.17742835
-0.22412002 -0.18676668 -0.34551835 -0.4669167 -0.4949317 -0.54162335 -0.2988267 -0.26147336
-0.308165 -0.23345836 -0.19610502 0.037353337 -0.08404501 -0.04669167 -0.06536834 0.009338334
0.07470667 0.009338334 0.04669167 0.018676668 -0.14007501 -0.06536834 0.121398345 0.0
-0.04669167 -0.102721676 -0.34551835 -0.24279669 -0.18676668 -0.17742835 -0.14941335 -0.121398345
-0.009338334 0.08404501 -0.037353337 0.102721676 -0.009338334 0.102721676 -0.15875168 0.009338334
-0.09338334 -0.308165 -0.14007501 -0.121398345 -0.056030005 -0.037353337 0.11206001 0.037353337
0.028015003 -0.13073668 -0.14941335 -0.06536834 0.056030005 -0.037353337 -0.31750336 -0.2988267
-0.4108867 -0.28948838 -0.04669167 0.06536834 -0.09338334 -0.15875168 -0.22412002 -0.028015003
-0.037353337 -0.028015003 -0.028015003 0.09338334 -0.22412002 -0.11206001 -0.09338334 0.018676668
-0.08404501 -0.09338334 -0.04669167 0.16809002 -0.056030005 -0.037353337 -0.19610502 -0.20544335
-0.11206001 0.056030005 -0.11206001 -0.056030005 -0.102721676 -0.13073668 0.018676668 0.028015003
-0.018676668 0.037353337 -0.06536834 -0.04669167 -0.07470667 -0.08404501 0.009338334 0.04669167
-0.028015003 -0.23345836 0.037353337 0.009338334 0.04669167 0.018676668 -0.11206001 -0.04669167
-0.04669167 -0.25213504 -0.08404501 -0.121398345 -0.09338334 0.056030005 0.037353337 0.06536834
-0.121398345 0.11206001 0.028015003 -0.04669167 -0.018676668 0.07470667 0.102721676 0.04669167
-0.08404501 -0.14941335 -0.037353337 0.037353337 -0.09338334 0.08404501 0.009338334 -0.13073668
-0.018676668 -0.20544335 -0.037353337 0.009338334 -0.028015003 -0.18676668 -0.056030005 -0.009338334
0.056030005 -0.056030005 -0.14941335 -0.04669167 -0.07470667 -0.06536834 0.06536834 0.04669167
0.028015003 0.13073668 -0.04669167 -0.07470667 -0.037353337 -0.04669167 -0.14007501 -0.009338334
0.028015003 0.018676668 0.009338334 0.018676668 -0.028015003 0.07470667 -0.06536834 -0.11206001
00000000: 01f9 05fc 06fc 0202 06fe 0407 fafe 0302
00000010: 0308 03fc fafd 01ff 0707 f9f9 0701 fb04
00000020: fa00 fdf6 0007 04fe 0506 fbf4 ebea fef0
00000030: 02ff fffd 04fc fa07 ff02 faf8 03f8 fdfe
00000040: fbf6 f907 fff1 f2ee dde5 f5ff f9ed 0504
00000050: 06f7 0705 0203 fe02 01fc fcfc fcf1 f5ed
00000060: e8ec dbce cbc6 e0e4 dfe7 eb04 f7fb f901
00000070: 0801 0502 f1f9 0d00 fbf5 dbe6 eced f0f3
00000080: ff09 fc0b ff0b ef01 f6df f1f3 fafc 0c04
00000090: 03f2 f0f9 06fc dee0 d4e1 fb07 f6ef e8fd
000000a0: fcfd fd0a e8f4 f602 f7f6 fb12 fafc ebea
000000b0: f406 f4fa f5f2 0203 fe04 f9fb f8f7 0105
000000c0: fde7 0401 0502 f4fb fbe5 f7f3 f606 0407
000000d0: f30c 03fb fe08 0b05 f7f0 fc04 f609 01f2
000000e0: feea fc01 fdec faff 06fa f0fb f8f9 0705
000000f0: 030e fbf8 fcfb f1ff 0302 0102 fd08 f9f4
