save model/tf_lite save model/tfLite_model.tfLite (tflite, 319944 bytes, 4 tensors)

sequential/dense/BiasAdd/ReadVariableOp f4 [100]
0	0x3ef7fe73	0.48436317
1	0x3db4b990	0.08824456
2	0xbdb5c9e1	-0.08876396
3	0x3d3d7a05	0.046258945
4	0x3eb2195b	0.3478497
5	0x3dc03759	0.09385557
6	0xbea221ab	-0.31666312
7	0xbea27c05	-0.31735244
8	0xbea4d103	-0.32190713
9	0xbcb982dd	-0.022645408
10	0xbe1fd3bc	-0.15608114
11	0x3e1a53dd	0.15071054
12	0x3e16ce06	0.14727029
13	0x3da9edce	0.08297311
14	0x3ec89295	0.39174333
15	0xbda8ede9	-0.08248503
16	0x3e9076cc	0.28215635
17	0x3ece6e01	0.403183
18	0x3e8628bd	0.26202956
19	0xbec030e0	-0.3753729
20	0x3e3afa97	0.18259655
21	0x3dd8e5ab	0.10590681
22	0xbecba8bd	-0.39777175
23	0xbd290bcb	-0.041271012
24	0x3cc3a081	0.023880245
25	0xbef50fe0	-0.47863674
26	0xbd94eff6	-0.072723314
27	0xbef675fe	-0.48136896
28	0xbec00962	-0.3750716
29	0xbe4fe83e	-0.20303437
30	0x3dfbcb3c	0.12294623
31	0x3e8bf0d1	0.27332166
32	0x3e8514a8	0.25992322
33	0x3e119967	0.14218675
34	0x3e0f2182	0.13977626
35	0xbe15b97b	-0.14621536
36	0x3d52777e	0.051383488
37	0xbec0ce36	-0.37657326
38	0x3e8f0e7e	0.27940744
39	0x3e275613	0.16341428
40	0x3deae108	0.114687026
41	0xbe7896ef	-0.24276327
42	0xbc9d5a2a	-0.019208033
43	0x3e85e6a4	0.26152527
44	0x3f13073a	0.574329
45	0x3e93d86e	0.2887606
46	0x3e002af2	0.12516382
47	0x3e887a86	0.26655978
48	0xbf08c2d6	-0.53422296
49	0xbe99a08f	-0.3000531
50	0x3efa9ebf	0.4894924
51	0x3e381409	0.17976393
52	0xbe2022fd	-0.15638347
53	0x3e4ec769	0.20193256
54	0x3d77988e	0.06044822
55	0x3e1cbb17	0.15305744
56	0x3ebd7643	0.3700429
57	0x3c9a6040	0.018844724
58	0x3e81febf	0.25389668
59	0xbe484ea9	-0.19561256
60	0x3e98405d	0.29736605
61	0x3de93114	0.11386314
62	0xbe90d15f	-0.28284737
63	0x3c3e714b	0.011623691
64	0xbea08c2f	-0.31356952
65	0xbec52849	-0.38507298
66	0xbcdcad16	-0.026938003
67	0x3e6cdcf7	0.23131166
68	0xbeb15afc	-0.34639728
69	0xbebf88a0	-0.37408924
70	0x3ea2b102	0.3177567
71	0x3ceb45a2	0.028719727
72	0xbdbde914	-0.09272972
73	0xbcac6100	-0.021042347
74	0xbde3b185	-0.111178435
75	0x3cc739f2	0.024319623
76	0x3dcbdd8c	0.09954366
77	0xbe97e71b	-0.29668507
78	0x3d825baa	0.0636514
79	0x3eb3ee75	0.35142866
80	0x3dd6d30a	0.10489471
81	0x3e3cb2e9	0.18427624
82	0xbeb183f5	-0.34670988
83	0x3e7d1ff8	0.24719226
84	0x3e07d098	0.13263166
85	0x3ebd33f3	0.36953697
86	0x3e152dca	0.14568248
87	0xbc81d418	-0.015848204
88	0xbe02026c	-0.12696236
89	0xbe8dbfbf	-0.27685353
90	0xbee5878c	-0.44829977
91	0x3eb2ac02	0.34896857
92	0x3e4ce651	0.20009734
93	0xbde7405b	-0.11291572
94	0x3eaf0446	0.34182948
95	0x3d8cb552	0.068705216
96	0x3e5abee9	0.21361889
97	0x3e659757	0.22421013
98	0xbdc609cc	-0.09669837
99	0x3cdf0a63	0.027226632

sequential/dense_1/BiasAdd/ReadVariableOp f4 [10]
0	0x3d38d0a1	0.04512084
1	0xbde5536c	-0.11197552
2	0xbef37d01	-0.47556308
3	0xbeceac20	-0.40365696
4	0x3e87e430	0.2654128
5	0xbeeb4562	-0.45951372
6	0xbe0be93a	-0.13663188
7	0xbecbf3de	-0.39834493
8	0x3f854a07	1.0413216
9	0x3e984747	0.2974188

sequential/dense/MatMul f4 [100, 784]
0	0x3bd508e0	0.006501302
1	0xbd78f892	-0.06078393
2	0x3d40e6ec	0.047095224
3	0xbd294913	-0.041329455
4	0x3d624efc	0.055251107
5	0xbd0e5219	-0.034746263
6	0x3c8dcf64	0.017310806
7	0x3cb813a0	0.022470295
8	0x3d5b49b4	0.053537086
9	0xbc7d62f0	-0.015465483
10	0x3d17a404	0.037021652
11	0x3d8c43ca	0.06848867
12	0xbd580268	-0.05273667
13	0xbc9315dc	-0.01795476
14	0x3ce73828	0.02822502
15	0x3cbe4bcc	0.023229502
16	0x3d04c726	0.032416485
17	0x3d9df85c	0.077133864
18	0x3cd19b40	0.025586724
19	0xbd10a594	-0.035314158
20	0xbd538aac	-0.05164592
21	0xbd05c7d7	-0.032661285
22	0x3badf360	0.0053085536
23	0xbc622a88	-0.013804086
24	0x3d896794	0.06709209
25	0x3d84323c	0.06454894
26	0xbd87d5e4	-0.06632593
27	0xbd7cafc6	-0.061691068
28	0x3d84619e	0.064639315
29	0x3c5383a0	0.0129098
30	0xbd4f1165	-0.050553698
31	0x3d29fe58	0.041502327
32	0xbd6fba88	-0.0585275
33	0xbb852e00	-0.0040643215
34	0xbcc335af	-0.02382931
35	0xbdc4cb1c	-0.096090525
36	0xb8077eaf	-3.230449e-05
37	0x3d8828ec	0.0664843
38	0x3d08d49d	0.03340589
39	0xbc77c0a8	-0.015121616
40	0x3d4d5274	0.05012746
41	0x3d6b9700	0.05751705
42	0xbd2fad89	-0.042890105
43	0xbddf0e63	-0.10891416
44	0xbe476c59	-0.19474925
45	0xbe50e250	-0.20398831
46	0xbca23cc0	-0.019804358
47	0xbe1c50a7	-0.15265141
48	0x3c9cbad6	0.019132059
49	0xbc55cece	-0.013049794
50	0xbc4b5958	-0.012411438
51	0xbcbfbbf2	-0.023405049
52	0x3d116850	0.03549987
53	0xbd1aa821	-0.037757996
54	0xbd6e9c38	-0.05825445
55	0x3d7c5734	0.0616066
56	0xbc0bf470	-0.008542165
57	0x3c7eb898	0.01554694
58	0xbd6c66f4	-0.05771537
59	0xbd9bf82e	-0.07615696
60	0x3cc21ec0	0.023696303
61	0xbda19821	-0.078903444
62	0xbcbf585a	-0.023357559
63	0xbcb18cf9	-0.021673666
64	0xbd4356d9	-0.047690246
65	0xbdb9f8a7	-0.0908063
66	0xbd89efa5	-0.06735162
67	0x3d8e5ff7	0.069518976
68	0xbc31d8a0	-0.01085487
69	0xbe0eed31	-0.13957669
70	0xbe07cec1	-0.13262464
71	0xbe2f50aa	-0.17120615
72	0xbea77e69	-0.3271363
73	0xbe7f61cd	-0.24939652
74	0xbdd5ba47	-0.1043592
75	0xbc3da14e	-0.011574103
76	0xbd860b31	-0.06545103
77	0xbe369993	-0.17832021
78	0x3d38c13b	0.045106154
79	0x3d05f5a6	0.03270497
80	0x3d764f90	0.06013447
81	0xbda62c47	-0.08113914
82	0x3d8c38e8	0.068467915
83	0x3d306784	0.04306747
84	0x3c68d998	0.014212035
85	0x3cf55d5c	0.029951744
86	0xbc89c5c0	-0.016817927
87	0x3c9db4ea	0.019251306
88	0x3c6279a1	0.013822944
89	0xbd1a0bcd	-0.03760891
90	0xbd165add	-0.036707748
91	0xbd1d5ae6	-0.038416766
92	0xbd252c6f	-0.04032558
93	0xbe11b045	-0.14227398
94	0xbdcd03b2	-0.100104704
95	0xbe320834	-0.17385942
96	0xbe6361cf	-0.2220528
97	0xbe435e8f	-0.1907904
98	0xbeaf57bc	-0.34246624
99	0xbeefe024	-0.46850693
100	0xbefb3b8e	-0.49068874
101	0xbf0b275e	-0.54356945
102	0xbe9701e1	-0.2949362
103	0xbe85198c	-0.25996053
104	0xbe9c5177	-0.30530903
105	0xbe732c53	-0.23747377
106	0xbe45e7a4	-0.19326645
107	0x3d0acb47	0.033885267
108	0xbda3dff9	-0.08001704
109	0xbd4a6036	-0.04940816
110	0xbd850a76	-0.06496136
111	0x3c313210	0.0108151585
112	0x3da1bdf8	0.07897562
113	0x3bc1b2e0	0.005911216
114	0x3d4e8497	0.050419416
115	0x3c92eeb3	0.017936086
116	0xbe0c89de	-0.13724467
117	0xbd7e181c	-0.06203471
118	0x3dffcb0c	0.124899
119	0x3aff83af	0.0019494201
120	0xbd2d7c4d	-0.04235487
121	0xbdc9a903	-0.098466896
122	0xbeb0f7bc	-0.34564006
123	0xbe7d0fad	-0.24713011
124	0xbe3d0a6a	-0.18461004
125	0xbe32387b	-0.17404358
126	0xbe162913	-0.14664106
127	0xbdf8113c	-0.12112662
128	0xbbc722b1	-0.0060771336
129	0x3db2bd39	0.087274976
130	0xbd2033f9	-0.039112065
131	0x3dc9d9d8	0.098560035
132	0xbc3666d0	-0.011132911
133	0x3dd5aafe	0.10433005
134	0xbe25f679	-0.16207303
135	0x3c37f235	0.01122718
136	0xbdc59176	-0.09646885
137	0xbe9bb5e1	-0.304122
138	0xbe12476b	-0.14285056
139	0xbdf53989	-0.119738646
140	0xbd5d49d0	-0.05402547
141	0xbd0788f6	-0.0330896
142	0x3dea9116	0.11453454
143	0x3d1fbdbb	0.0389993
144	0x3cffb4bb	0.031214109
145	0xbe064eb0	-0.13115954
146	0xbe14c965	-0.14529951
147	0xbd808570	-0.06275451
148	0x3d629e04	0.055326477
149	0xbd1b721d	-0.037950624
150	0xbea3a091	-0.3195844
151	0xbe9b53cf	-0.30337378
152	0xbed2421f	-0.4106607
153	0xbe946fed	-0.28991643
154	0xbd376545	-0.044774313
155	0x3d7bfe94	0.06152208
156	0xbdc2bb26	-0.09508352
157	0xbe204551	-0.15651442
158	0xbe6432e6	-0.22285041
159	0xbd02f345	-0.03197028
160	0xbd1e1b9b	-0.038600545
161	0xbd03ada7	-0.03214803
162	0xbcd31d3a	-0.025770772
163	0x3dbb061f	0.09132027
164	0xbe635cc8	-0.22203362
165	0xbde8966f	-0.11356818
166	0xbdc6c3dc	-0.09705326
167	0x3c7894cb	0.015172194
168	0xbda6dde3	-0.0814779
169	0xbdbc9073	-0.09207239
170	0xbd36eccc	-0.04465942
171	0x3e2f21ba	0.1710271
172	0xbd605340	-0.054766893
173	0xbd25a387	-0.040439155
174	0xbe4a92e3	-0.19782595
175	0xbe56a73f	-0.20962237
176	0xbddf3c03	-0.10900118
177	0x3d5b0148	0.05346802
178	0xbded8e63	-0.11599424
179	0xbd5c7027	-0.053817894
180	0xbdc9fe43	-0.0986295
181	0xbe028d31	-0.12749173
182	0x3ca392a5	0.019967386
183	0x3cf89403	0.030344015
184	0xbcb784e1	-0.022402229
185	0x3d1b5a01	0.03792763
186	0xbd8914f0	-0.06693447
187	0xbd3b4429	-0.0457193
188	0xbd9a2bbe	-0.075278744
189	0xbdab074c	-0.08351001
190	0x3b9ba91c	0.004750384
191	0x3d2dc9c4	0.042428747
192	0xbce4970b	-0.027904054
193	0xbe6ba7a1	-0.23013164
194	0x3d230f89	0.039809737
195	0x3b9f8005	0.004867556
196	0x3d37bf58	0.044860214
197	0x3c8db130	0.017296404
198	0xbdea678f	-0.114455335
199	0xbd493966	-0.049127005
200	0xbd2c39a4	-0.042047158
201	0xbe81d3bb	-0.2535685
202	0xbdad43cb	-0.08460196
203	0xbdfa7aab	-0.12230428
204	0xbdc2e058	-0.095154464
205	0x3d7259e4	0.059167758
206	0x3d1abe4d	0.03777914
207	0x3d803f58	0.06262082
208	0xbdff863f	-0.12476777
209	0x3de01579	0.109415956
210	0x3cf6710f	0.030083207
211	0xbd37f784	-0.044913784
212	0xbc7976f3	-0.015226114
213	0x3d98b825	0.07456998
214	0x3dcea00a	0.10089119
215	0x3d4c4d32	0.049878307
216	0xbdb40018	-0.087890804
217	0xbe19a515	-0.1500438
218	0xbd2308cc	-0.03980331
219	0x3d290564	0.041264907
220	0xbdb671fb	-0.08908459
221	0x3da607b9	0.08106942
222	0x3bb4b063	0.005514191
223	0xbe099e15	-0.1343921
224	0xbca407a4	-0.020023175
225	0xbe51adf3	-0.20476513
226	0xbd187c87	-0.037228134
227	0x3c0332ee	0.008007748
228	0xbcd1d265	-0.02561302
229	0xbe3cbe24	-0.18431908
230	0xbd6881d9	-0.056764457
231	0xbc472390	-0.012154475
232	0x3d6510da	0.055924274
233	0xbd74abb9	-0.05973408
234	0xbe1d2f64	-0.1535011
235	0xbd3d3fdf	-0.04620349
236	0xbd909c63	-0.070610784
237	0xbd8a3ecc	-0.06750259
238	0x3d896756	0.06709163
239	0x3d4de03b	0.05026267
240	0x3cd73d94	0.02627448
241	0x3e0713aa	0.13191095
242	0xbd2e730b	-0.042590182
243	0xbd996854	-0.07490602
244	0xbd09df19	-0.033660028
245	0xbd38035f	-0.04492509
246	0xbe0ac54a	-0.13551822
247	0xbbfb49a5	-0.007668691
248	0x3cfa15c5	0.030527959
249	0x3c94138c	0.018075727
250	0x3c59b988	0.013288863
251	0x3c8ea1d8	0.017411157
252	0xbcda02ed	-0.026612723
253	0x3d90f226	0.07077436
254	0xbd8b9fe9	-0.0681761
255	0xbddff68a	-0.109356955

sequential/dense_1/MatMul f4 [10, 100]
0	0xbf5fa016	-0.87353647
1	0xbe1d07d0	-0.15335011
2	0x3e460c9b	0.19340746
3	0x3e1bf079	0.15228452
4	0xbecf2067	-0.4045441
5	0xbe77af51	-0.24187972
6	0x3e281f1d	0.16418119
7	0x3ddcf799	0.10789413
8	0x3db7e059	0.08978338
9	0x3e0db1b0	0.13837314
10	0xbef862aa	-0.48512775
11	0xbe923289	-0.2855418
12	0xbf0635f9	-0.52426106
13	0x3d785c86	0.060635112
14	0x3e89a15e	0.26880926
15	0xbe6c3e98	-0.23070753
16	0xbde7f847	-0.11326652
17	0xbc8b1682	-0.016978506
18	0xbe71dc71	-0.23619248
19	0x3e14d039	0.14532556
20	0xbe694b14	-0.22782546
21	0xbf22757a	-0.63460505
22	0x3dd166c2	0.102246776
23	0xbeac2e66	-0.3362915
24	0x3cf9aca0	0.030477822
25	0xbedb3222	-0.42811686
26	0x3d8b8dbf	0.06814145
27	0xbe958bd3	-0.2920824
28	0xbea81677	-0.3282964
29	0xbe26521c	-0.1624226
30	0x3e8a529b	0.27016148
31	0xbf150876	-0.58216035
32	0x3d27d63a	0.040975787
33	0x3dcb610e	0.09930621
34	0xbe91791f	-0.2841272
35	0xbe9432d7	-0.28945038
36	0xbe809d39	-0.2511995
37	0xbee52730	-0.4475646
38	0xbeb6824c	-0.35646284
39	0xbf2e5ffd	-0.68115216
40	0xbf0c2aad	-0.5475262
41	0xbde9b198	-0.114108264
42	0x3d7092b2	0.05873365
43	0xbf04956e	-0.5179051
44	0xbeb4db5b	-0.35323605
45	0xbf2f07eb	-0.68371457
46	0xbeca1bde	-0.39474386
47	0xbda36a71	-0.079792865
48	0x3a225da4	0.0006193763
49	0xbea5bda4	-0.32371247
50	0xbea5ab94	-0.32357466
51	0x3d93f0a5	0.07223634
52	0x3ea68366	0.32522124
53	0x3e311178	0.1729182
54	0xbe06ec20	-0.13176012
55	0xbd76ee0c	-0.060285613
56	0xbf1dacda	-0.61591876
57	0xbeacabaf	-0.33724734
58	0xbe44e3ed	-0.19227572
59	0x3e8ff069	0.28113106
60	0xbee7d108	-0.45276666
61	0x3e7fd979	0.24985303
62	0x3e91873e	0.28423494
63	0xbedbb550	-0.42911768
64	0xbe4f2e69	-0.20232548
65	0x3e0e13b7	0.13874708
66	0x3e0c78c0	0.13717937
67	0xbecd73c1	-0.40127376
68	0x3d404a2c	0.046945736
69	0xbec02537	-0.37528393
70	0x3e7b61a6	0.24548969
71	0x3e358c74	0.1772936
72	0xbeb3325d	-0.34999362
73	0xbeeffb83	-0.46871576
74	0xbe1feeee	-0.15618488
75	0x3e264266	0.16236266
76	0xbe90640c	-0.2820133
77	0xbecd7bd1	-0.40133527
78	0x3e9227ff	0.2854614
79	0xbf7750df	-0.96607774
80	0x3c27ad55	0.010234197
81	0x3cfd923a	0.030953515
82	0xbf21a9be	-0.6314963
83	0x3e834598	0.25639033
84	0x3e1734f3	0.14766292
85	0xbea312c7	-0.31850263
86	0x3e709202	0.23493198
87	0xbe4a417d	-0.19751544
88	0x3d741e88	0.05959943
89	0xbdef3638	-0.11680263
90	0x3d7af966	0.061273
91	0x3e85dc2d	0.26144543
92	0xbd7e3295	-0.062059958
93	0x3e5fd61d	0.21859021
94	0xbef0e68c	-0.47050893
95	0xbdb0cd54	-0.08632913
96	0xbed26622	-0.41093546
97	0xbeea6f02	-0.45787817
98	0xbf2539e1	-0.6454144
99	0xbe17d1a2	-0.14826062
100	0x3e37918f	0.1792662
101	0xbe74415f	-0.23853062
102	0xbef42cac	-0.47690332
103	0x3d5f3f1e	0.054503553
104	0xbb9e3744	-0.0048283655
105	0xbe49bb73	-0.19700412
106	0xbe8feee8	-0.28111959
107	0x3dc778dc	0.09739849
108	0xbe388150	-0.18018079
109	0xbe8a4308	-0.27004266
110	0xbde7a747	-0.113112025
111	0xbe2c7dd0	-0.16844869
112	0x3e3a4287	0.1818944
113	0xbe383076	-0.17987236
114	0xbc1650be	-0.009174524
115	0xbe53aed2	-0.20672157
116	0xbe858a84	-0.26082242
117	0x3e5bd64a	0.21468464
118	0x3e281cfe	0.1641731
119	0x3d9fbc9e	0.07799648
120	0xbeb21b4f	-0.3478646
121	0xbd8dd1db	-0.069247924
122	0xbe7e43ce	-0.24830553
123	0xbd0aca4c	-0.03388433
124	0x3ea24388	0.31692147
125	0xbe8b8339	-0.27248552
126	0xbdca8f7c	-0.09890649
127	0x3c8ad33b	0.016946426
128	0x3da1bae7	0.07896977
129	0xbeadeaaf	-0.33968112
130	0x3e72b812	0.2370303
131	0xbe85dc80	-0.2614479
132	0xbe8cdb88	-0.2751124
133	0x3e5956c8	0.2122451
134	0x3e0c4b66	0.13700637
135	0x3e0ec3ce	0.13941881
136	0x3e06cd85	0.13164337
137	0xbeb47b54	-0.35250342
138	0x3e35e12c	0.17761678
139	0x3e4a4862	0.19754174
140	0x3ea0184d	0.3126854
141	0x3e473609	0.19454207
142	0x3e5c887e	0.21536443
143	0x3e586072	0.21130541
144	0x3ece0248	0.40236115
145	0x3e9e0c82	0.30868918
146	0x3e2b454d	0.16725655
147	0xbebb38a5	-0.36566654
148	0xbd5bdb9d	-0.053676236
149	0x3e3660df	0.17810391
150	0xbead0150	-0.33790064
151	0xbf14abdd	-0.5807474
152	0xbf04f678	-0.5193858
153	0x3e955cd4	0.29172385
154	0xbe22ce55	-0.15899022
155	0xbe03c6bd	-0.12868781
156	0x3d7d9a39	0.061914656
157	0xbe80a372	-0.251247
158	0x3e48d48d	0.19612332
159	0xbee9dec0	-0.45677757
160	0x3e8e6509	0.2781146
161	0xbe8c9c2c	-0.274629
162	0x3e0d8d2a	0.13823381
163	0x3e7aa40d	0.24476643
164	0x3db43fa6	0.088012025
165	0xbe71077d	-0.23538013
166	0xbe888f57	-0.2667186
167	0x3ed4e218	0.41578746
168	0x3d656516	0.056004606
169	0x3e29c531	0.16579129
170	0xbe8dda1a	-0.2770546
171	0xbef4d3d6	-0.47817868
172	0xbe204e4f	-0.15654872
173	0xbd531cf9	-0.051541302
174	0x3dfe0a29	0.12404282
175	0xbf05d723	-0.522814
176	0x3ec4a822	0.38409525
177	0xbed0e279	-0.40797785
178	0xbe8fde24	-0.28099167
179	0x3f26658f	0.64998716
180	0xbe9cff72	-0.3066364
181	0x3e883508	0.2660296
182	0xbcf31599	-0.029673385
183	0x3cd785d0	0.026308924
184	0xbf15c52d	-0.5850399
185	0x3edf4d37	0.43613598
186	0x3dd0c6a7	0.1019414
187	0xbe963b5b	-0.2934216
188	0xbe9353fa	-0.28775007
189	0x3dca4500	0.09876442
190	0x3ca2f424	0.019891806
191	0x3db499a9	0.08818371
192	0xbef888cd	-0.4854187
193	0xbe8deeb3	-0.27721176
194	0x3e3677ba	0.1781911
195	0x3e245b06	0.16050348
196	0x3e734346	0.23756132
197	0x3e1885df	0.14894818
198	0xbe4d8cbb	-0.20073216
199	0xbee615bd	-0.4493846
200	0xbf0eb1ce	-0.5574006
201	0xbea4248e	-0.3205914
202	0xbdbb0a2a	-0.09132798
203	0x3e383de9	0.17992367
204	0xbeeb7223	-0.45985517
205	0xbea0b3e5	-0.3138725
206	0xbc597908	-0.013273485
207	0xbed59fc5	-0.41723457
208	0x3df111d8	0.117709816
209	0x3d24fae4	0.04027833
210	0x3e7a4e56	0.24443945
211	0x3e32a505	0.17445762
212	0x3e86bcf9	0.2631605
213	0x3e3ca977	0.1842402
214	0xbe03169e	-0.12801597
215	0xbdc7df58	-0.09759396
216	0x3d162598	0.036656946
217	0xbf00df09	-0.50340325
218	0x3e875398	0.26430964
219	0x3c713a26	0.014723336
220	0xbe410ffc	-0.18853754
221	0x3e9efda2	0.3105288
222	0x3c84ef08	0.01622726
223	0x3e615ce1	0.22008087
224	0x3e491042	0.19635108
225	0x3a4bcfa9	0.0007774779
226	0x3d1daae8	0.038493067
227	0x3ca106f5	0.019656638
228	0x3e19d0b1	0.15021016
229	0xbe4ed9a6	-0.20200214
230	0x3e6d2286	0.23157701
231	0x3e128598	0.14308774
232	0x3c47d842	0.012197556
233	0x3d1e8e5f	0.038709994
234	0x3ec4d9ed	0.38447514
235	0x3e8e80ee	0.2783274
236	0xbe48846a	-0.19581762
237	0xbe51f5c1	-0.20503904
238	0x3e16510b	0.14679353
239	0xbf0f1ff7	-0.5590815
240	0xbee8b4e0	-0.45450497
241	0xbd811d38	-0.06304401
242	0xbd857de0	-0.065181494
243	0xbebeb0b3	-0.37244186
244	0xbf734c75	-0.9503854
245	0xbe21c927	-0.1579939
246	0xbe82e9a6	-0.25568885
247	0xbea0d315	-0.31411043
248	0x3e7ecfd7	0.24883972
249	0x3e86445c	0.2622403
250	0x3e04ef0e	0.12981817
251	0x3e06b42c	0.13154668
252	0xbd8679ec	-0.065662235
253	0xbe2093f2	-0.15681437
254	0x3e43d129	0.19122757
255	0xbed1be82	-0.40965658
